Analysis/eeg_anxiety-best_model_2024-05-15.onnx (onnx, 78180 bytes, 5 tensors)

fc1.weight f4 [100, 60]
000000 66 90 37 3d 0c 6a 9a bd f7 43 17 bd 20 a3 02 bc
       0.044815443 -0.07539758 -0.03693005 -0.007973462
000010 81 7f 80 3d a2 0c d7 3d 28 44 dc bc aa 00 6d 3d
       0.062743194 0.105004564 -0.026887968 0.05786196
000020 1d 61 d1 3d 21 da d7 bd d1 7e f1 3c 57 e9 00 be
       0.10223601 -0.10539652 0.029479416 -0.12589012
000030 ad 30 c1 bd e9 85 00 3d 5c 25 95 3d 67 ee d2 bc
       -0.09433112 0.031377707 0.07282516 -0.025748445
000040 4b 52 7c 3c 50 2c b7 bd 02 26 84 3d 66 76 03 be
       0.01540048 -0.08943999 0.06452562 -0.12838134
000050 33 f9 ce bd 7e 51 92 bd 8f dd 4d bd 2f 43 e5 3b
       -0.10106125 -0.0714445 -0.050260123 0.0069965343
000060 96 d4 ba bb 2d 9f 9b bd dd 64 72 bc af 04 08 be
       -0.0057016117 -0.0759872 -0.0147945555 -0.13283037
000070 91 d1 e5 bd cb a2 c6 bd cd 89 b3 3d 90 99 ba 3d
       -0.11221612 -0.09699019 0.08766518 0.09111321
000080 83 38 28 bc 26 52 fb 39 51 98 7c bd 68 a1 ac bd
       -0.01026738 0.00047935656 -0.061668698 -0.08429223
000090 86 24 ae bd 88 0e 48 3d 1e cb ab bd 2a 4c 9f bd
       -0.0850306 0.048841983 -0.08388351 -0.07778199
0000a0 55 80 f3 3b 75 31 0c be 26 18 05 3d 14 20 86 bd
       0.00743107 -0.13690741 0.032493733 -0.06549087
0000b0 da c8 a4 3d 00 ff ed bd 0e 58 3b 3d 30 43 1e ba
       0.08046122 -0.11620903 0.045738272 -0.00060372334
0000c0 d3 9c ac 3a c1 09 5d 3c 7b c7 9b bd 19 ea ea bd
       0.0013169296 0.013491095 -0.07606407 -0.11470432
0000d0 14 74 c5 bd 33 8d 04 bd 47 aa 08 be 88 7e 00 3d
       -0.09641281 -0.03236122 -0.13346206 0.03137067
0000e0 83 45 ad 3d 70 20 d8 bd 10 84 14 3c cf 69 e1 3d
       0.08460524 -0.10553062 0.009064689 0.110065095
0000f0 c0 ee bf 3e 66 c4 33 3e a5 bb 26 bd 8a 6d a0 be
       0.3748684 0.17555389 -0.040706296 -0.31333572
000100 6e 8c 12 3e 96 14 77 3e 84 0f d7 bd 16 02 b0 be
       0.14311382 0.24128947 -0.10501006 -0.3437659
000110 f6 7c af ba 7c e4 58 3e 14 37 27 3e a9 1f 7a 3d
       -0.0013388682 0.2118091 0.16329604 0.06106535
000120 f9 88 ae bd b7 42 bd 3d cd b2 84 3e 87 ae 54 bc
       -0.08522219 0.092412405 0.25917664 -0.012981064
000130 10 7f ca 3d ba 66 1e 3c 99 86 92 3e ee 66 95 be
       0.098875165 0.009668047 0.28618315 -0.29180092
000140 44 af 67 be 5c 53 6e 3d de 08 9a be ae 4e 1e be
       -0.22625452 0.058184966 -0.3008489 -0.15459701
000150 f6 5d ad be c6 f8 fd bb fe 1b a4 3d 89 d6 46 3e
       -0.3386075 -0.0077506034 0.080131516 0.19417776
000160 29 91 71 be 0a 32 a0 be 0a ef 41 be 4f ec 94 3d
       -0.2359053 -0.31288177 -0.18938842 0.07271635
000170 45 9f 81 3d fe b2 67 bf db 35 67 bd ca 18 18 3d
       0.063292064 -0.90507495 -0.056447845 0.037133016
000180 3c 58 75 be 0a 38 6e be cc 3a 1e 3e 85 bc b3 3c
       -0.2395944 -0.23263565 0.15452117 0.021940479
000190 de fa 29 3e fc 0c 08 be 5c f1 b0 bd 5b da 6e be
       0.16599604 -0.13286203 -0.08639786 -0.23325484
0001a0 72 06 9b 3e 31 d3 d4 bd 28 f0 9b bd b4 40 8c 3e
       0.30278355 -0.10391844 -0.076141655 0.27393115
0001b0 a5 89 40 bd 58 17 5f 3e 91 78 c1 3e 14 bf 26 3b
       -0.047006268 0.21786249 0.37787297 0.0025443481
0001c0 d8 e4 32 3e 4e f8 4d 3e 24 06 bf bd f0 3e df bd
       0.1747011 0.20114252 -0.09327343 -0.10900676
0001d0 ad ed 2f 3d 4b 12 c9 bd 83 6a 00 3e cb e5 a4 3c
       0.042951275 -0.09817942 0.12540631 0.020129105
0001e0 43 d9 ac be e8 8b 62 be da d1 d5 bd 2e e4 1d 3e
       -0.33759508 -0.22123682 -0.10440417 0.15419075
0001f0 d3 2a 61 be ed b8 96 bc a9 ec 9b bd 4f 3b 38 be
       -0.21988992 -0.018398726 -0.07613499 -0.17991374
000200 e3 cd 96 be 43 71 d0 be 77 6c 3b 3b 99 63 74 3d
       -0.29453954 -0.40711412 0.0028598586 0.059665296
000210 09 c1 ad 3e 78 18 08 bc d3 e5 40 be 35 4b 3d 3e
       0.33936337 -0.008306615 -0.18837671 0.1848572
000220 e5 c4 39 bd c7 0a bc 3d d7 56 39 3e f2 ab cb 3c
       -0.04535379 0.09181743 0.18099533 0.024862263
000230 17 77 04 3d a3 ff b6 3e e3 c6 1a 3f ac 36 8b 3e
       0.032340135 0.3574191 0.6045973 0.2719015
000240 90 65 fe 3e 58 3c 59 3e 3b bc 01 3e ba 62 56 be
       0.4968686 0.21214426 0.1266946 -0.20936099
000250 76 ab 23 bd a5 c5 04 be 05 84 a1 bd 52 5f 82 bd
       -0.03995844 -0.1296602 -0.07886509 -0.06365837
000260 96 cb 7f 3d 3e ac 95 bd e1 8b a5 bd 92 bb 26 be
       0.062450014 -0.07308243 -0.080833204 -0.1628249
000270 db d5 3a 3e 35 76 88 bd c5 25 13 be 6f 50 87 be
       0.18245642 -0.06663171 -0.14369877 -0.26428553
000280 ac 50 94 3d c1 85 b6 3e 49 f5 ec bd 4d 2c 31 3e
       0.072419494 0.3564892 -0.11570222 0.17302056
000290 03 b7 ad be 92 cb cc bc b8 06 16 3d e8 b1 e4 3d
       -0.3392869 -0.024999414 0.0366275 0.111667454
0002a0 1d 4d 53 3d 27 ba 14 3c f8 b1 8d bd 7f 70 0a bd
       0.051587213 0.009077585 -0.069187105 -0.03379869
0002b0 72 42 d0 bd 74 a8 d3 bb f4 69 f3 3d dc 59 ad be
       -0.101689234 -0.00645929 0.11885443 -0.3385762
0002c0 e7 f7 b7 bd d7 b9 d5 bd 4e 67 be bd 16 92 13 3e
       -0.089828305 -0.10435837 -0.092970476 0.14411196
0002d0 02 3b 22 bd 69 d2 79 bd b7 6d 87 be cd ee 47 be
       -0.039607055 -0.06099168 -0.26450893 -0.19524689
0002e0 d4 df be 3b 87 ed 19 3d f0 83 92 be 06 4b ac bb
       0.0058250222 0.03758004 -0.28616285 -0.005257967
0002f0 69 da 8a be 7d 38 96 be 5c ab 98 bb 33 d1 8e bb
       -0.2711976 -0.29339972 -0.0046590995 -0.0043584346
000300 7a 43 87 3e 69 42 d9 bd 38 f5 91 be 86 52 1e be
       0.26418668 -0.1060837 -0.285074 -0.15461168
000310 5f af 1d be d9 8b 5f 3d 42 86 48 be 11 81 5b 3e
       -0.1539893 0.05457673 -0.19582465 0.21435954
000320 b8 db fe 3d b4 42 b2 3e ba 0c a5 3e 4a 7a 06 3e
       0.12444252 0.34816515 0.32236272 0.13132587
000330 f3 cd 6f 3e 60 6c 27 3e e0 11 1d 3e c2 99 3f 3c
       0.23418407 0.16349936 0.1533885 0.011694374
000340 cd 8a 24 be 08 14 21 be 98 d9 37 b9 e9 e8 13 be
       -0.16068573 -0.15730298 -0.000175333 -0.14444317
000350 4a 89 61 3e 24 88 2f be 89 33 6f be 7b c5 97 be
       0.22025028 -0.17141777 -0.23359503 -0.29642853
000360 5e 34 d9 3d df 94 ef bc 74 99 38 3e bb ee a7 3b
       0.106056914 -0.029245792 0.18027288 0.0051248944
000370 23 6d 04 3e be 94 39 3e f4 2e 36 3e 50 39 f6 3d
       0.12932257 0.18123147 0.17791349 0.1202265
000380 69 0e db be 9a 48 6a 3d f8 72 79 3d c4 dc 95 3e
       -0.42784432 0.057198144 0.06090066 0.29269993
000390 eb 54 0a be c3 5a 82 bd ff b0 6e be 68 48 ac be
       -0.13508956 -0.06364968 -0.23309706 -0.33648992
0003a0 23 70 fb bd 83 6e 1e be a2 85 05 3e 8b 4c 0d be
       -0.12277248 -0.15471844 0.13039258 -0.1379873
0003b0 fb 4e fe 3d 66 67 e0 bd fd 9c fb bd 5f 16 21 3e
       0.12417408 -0.10957222 -0.122858025 0.1573119
0003c0 96 02 f3 3d 0c 97 9f 3d 50 61 c2 3c f6 00 cc 3d
       0.118657276 0.07792482 0.023728043 0.09961121
0003d0 2c 4a 97 3d 00 3f 9f 3b 90 42 09 bd 68 36 98 3c
       0.07387194 0.004859805 -0.033510745 0.01858063
0003e0 fc dc 3f 3d 28 29 a0 3c b4 73 f0 3d fe be 00 bd
       0.046841606 0.019550875 0.117408186 -0.031432144
0003f0 20 7a 61 3c b2 8c 3f bd 18 48 c2 3d bb 98 8a bd
       0.013762027 -0.046765037 0.09486407 -0.06767412

fc1.bias f4 [100]
000000 b7 01 46 3c 1b ad e5 bb 21 af 6b 3c ee 24 f8 3b
       0.01208537 -0.007009161 0.014385016 0.0075727617
000010 fb 40 c3 bd ec 47 f1 3c 76 ed 12 3d 23 1c 8c 3c
       -0.095338784 0.02945324 0.03587099 0.01710326
000020 35 13 c7 3d ec 57 ba 3d 42 52 8d bd 9f 8c 24 3c
       0.0972046 0.09098801 -0.06900455 0.010043292
000030 66 97 c0 bd 08 d7 6e 3d f3 ec bf bd 24 bd e7 bd
       -0.09403877 0.05831054 -0.09371366 -0.113153726
000040 74 25 06 bc 4c 4c a9 3d 45 55 cf 3c 66 99 a8 3c
       -0.00818764 0.082665056 0.025309214 0.020580959
000050 68 fd 88 bd d5 e4 d7 3c e9 94 92 3d d4 6e 61 3d
       -0.066889584 0.026354233 0.071573086 0.055037335
000060 c1 1a 51 bb df a8 ee bc 54 76 18 3d 1c 13 96 bd
       -0.0031906816 -0.029133258 0.03722222 -0.073278636
000070 4f 69 3a bc 3c e5 29 3d bd 59 d9 3d 49 25 81 bd
       -0.011377647 0.04147838 0.10612819 -0.0630594
000080 a5 73 83 3c d8 d5 ac bc 24 f3 2d bd fb ef dc 3c
       0.016046355 -0.021098062 -0.042468205 0.0269699
000090 d6 36 76 3d 0b ac ce bd da 3c ea bd dc 6e f7 3b
       0.06011089 -0.10091408 -0.11437388 0.0075510573
0000a0 6f 7c 14 3c a4 99 40 bc 30 2b bb 3c 5c 5d 9a bc
       0.00906287 -0.011755381 0.022847742 -0.018843345
0000b0 62 98 28 ba 0b f7 6e 3d e0 7b a7 bd 79 63 ca bc
       -0.0006431398 0.058341067 -0.08177924 -0.024705635
0000c0 15 10 fa bd c4 bf 1e 3d cf 45 74 3b 94 0f a6 bd
       -0.12210099 0.0387571 0.0037273054 -0.0810844
0000d0 bb 63 b2 3d 85 05 ad bb a5 0d 6f 3c 1c 8b d7 bd
       0.08710428 -0.005280199 0.014590655 -0.1052458
0000e0 a9 1e 93 3d 7b bf bb bd 8a ce 91 3d a6 58 2a 3d
       0.07183582 -0.091673814 0.07119472 0.041588448
0000f0 d2 74 57 bd f2 71 4c bd 9b 32 9d 3d 99 34 a9 3d
       -0.052601643 -0.049913354 0.07675668 0.08261985
000100 78 07 63 bd aa fb cc bd 48 68 c0 bd b9 05 fc bd
       -0.055427045 -0.100089386 -0.0939489 -0.12305779
000110 d7 27 b6 3d fd f2 32 3d dc b2 46 3d 9b 79 a6 3d
       0.088943176 0.043688763 0.048510417 0.08128663
000120 36 fd 8c bd 0e 0c eb bd 1e 1c 99 bd cc dd a4 3d
       -0.06884234 -0.114769086 -0.07476066 0.08050117
000130 d1 fa af 3c 65 45 cd bd 24 e4 93 bd 58 5b 53 3d
       0.021481903 -0.100230016 -0.07221249 0.051600784
000140 af a5 d8 3c 4a f5 25 bd a3 06 aa bd 28 ae 33 3d
       0.026446192 -0.04051713 -0.08302047 0.04386726
000150 b4 ed 00 3d 21 03 19 3d ae 3b b5 bd 28 18 ad bd
       0.03147669 0.0373565 -0.088492736 -0.08451873
000160 8a 6b 1a bd 9d 32 52 3d 12 34 9b bd 5e 46 d9 bd
       -0.037700213 0.0513178 -0.07578291 -0.106091246
000170 be ad f4 bd 98 ea 15 bb 9c 4b d1 bd 8b fc df bd
       -0.11947201 -0.0022875424 -0.102194995 -0.109368406
000180 bf c4 44 3d bf a8 9e 3d a4 5b 0d bd 9d c7 65 bc
       0.048039194 0.077470295 -0.034511223 -0.014024642

fc2.weight f4 [64, 100]
000000 c6 ba 44 3d f0 26 14 3c 5e aa 65 3d 19 56 b2 3d
       0.048029684 0.009042487 0.056070678 0.08707828
000010 c3 76 af 3d 76 5a 07 bd 1a 6d 1e bd d2 34 25 3d
       0.08567574 -0.033045255 -0.038678266 0.040333577
000020 14 00 f5 3c d8 c2 2f bc c7 0e b0 bd 9a d5 1e bd
       0.029907264 -0.010727607 -0.085965686 -0.038777925
000030 23 ba 35 bd 6c c8 86 bd e0 2e 80 3b 0f e1 8e 3d
       -0.044366967 -0.06581196 0.003911838 0.0697652
000040 da 34 1c 3d 00 fc 00 3b e6 24 34 3d 60 9f 47 bb
       0.03813634 0.0019681454 0.0439805 -0.0030459985
000050 a7 a2 7e bd ae 83 37 3d 0a 3d 08 bd 80 4a 9b bb
       -0.062166836 0.044803314 -0.033261336 -0.0047391057
000060 53 37 74 bd 72 26 a0 bd b2 2c 20 3d 28 a1 c7 bd
       -0.059623074 -0.07819833 0.039105125 -0.09747535
000070 62 98 1b 3d e8 98 75 bc 6d 04 aa 3d 4b ca b6 3d
       0.03798712 -0.014990069 0.083016254 0.08925303
000080 02 fd 22 3d aa cb 90 bd 68 3c 9c bc 06 39 19 3d
       0.03979207 -0.07070096 -0.019071773 0.037407897
000090 03 d7 1e bd 90 45 5a bc 08 25 f3 bc 80 cd 83 bd
       -0.03877927 -0.013322249 -0.029680744 -0.064356804
0000a0 c6 72 06 3d 2a 08 12 bd b3 b6 46 bd d3 b2 9f bd
       0.0328243 -0.035652317 -0.04851408 -0.0779778
0000b0 30 f8 27 bd c8 a5 b6 bd 63 64 b8 bd b6 7e 65 3d
       -0.041008174 -0.08918339 -0.09003522 0.056029044
0000c0 3d 2a 6e bd 1d c6 b0 3d cd e6 a9 3d ec 0d cf bc
       -0.05814575 0.08631537 0.08295975 -0.025275193
0000d0 04 25 cf 3c ce 47 67 3d 80 23 9b 3b 00 6f b5 bb
       0.025286205 0.056464963 0.0047344565 -0.005536914
0000e0 94 ff 99 bc 4e 42 10 3d fb d2 bf 3d 8c 8b ca 3c
       -0.018798627 0.035219483 0.09366413 0.024724744
0000f0 40 87 40 bd 5b 93 9b bd 11 52 c4 3d 00 c6 5a 39
       -0.047003984 -0.07596465 0.095859654 0.00020863861
000100 e3 dd a3 3d e0 a1 9a bb 29 b3 87 3d 31 d3 84 3d
       0.08001306 -0.004719004 0.06625969 0.06485594
000110 b3 e1 40 bd c9 f2 90 3d 00 72 a1 bc 36 07 35 3d
       -0.047090244 0.070775576 -0.01970768 0.04419633
000120 7e 92 1b 3d fe 96 04 3d ca e6 3d 3d 31 d4 8d 3d
       0.037981503 0.03237056 0.046362676 0.06925238
000130 a8 37 2d 3c a2 e4 68 3d 9a d6 37 bd cf f8 ca 3d
       0.0105723515 0.056858666 -0.044882394 0.09910738
000140 50 3e b1 3b b0 fd d2 bb b6 fe 03 bd 22 f8 be bd
       0.0054090396 -0.0064389333 -0.032225333 -0.09324671
000150 13 6d 45 bd d3 e7 98 bd e5 b5 b9 3d 90 85 45 bc
       -0.048199724 -0.07466092 0.09067897 -0.01205577
000160 60 fa d5 3b 70 96 42 3c 82 88 be bd af 08 ca bd
       0.006530091 0.011876687 -0.093033805 -0.098649375
000170 60 10 df bb ec 12 ae 3c c3 12 27 bd c0 ce 69 bc
       -0.006807372 0.021249257 -0.040789377 -0.014270484
000180 40 3e 91 3c 2c 5b 94 bc 58 c2 af bc ce cf 13 3d
       0.017729878 -0.01810988 -0.021454975 0.03608685
000190 ef a0 28 3d 71 40 4b bf b5 29 07 3f b8 bf e6 3e
       0.041169103 -0.79395205 0.52798015 0.45068145
0001a0 52 b7 70 3d 41 b2 75 3d 54 50 a9 3e 5a 1d 43 be
       0.058768578 0.05998445 0.33069098 -0.19054165
0001b0 55 54 25 bd 5e 24 85 be c0 c4 39 3b 92 e3 d2 3d
       -0.04036363 -0.26004308 0.0028346032 0.10297312
0001c0 59 38 bf 3d 00 99 7e 3e c8 9a 85 bd 55 eb bb bd
       0.09336919 0.24863052 -0.06523663 -0.091757454
0001d0 9b b7 81 bf 28 03 42 3e bf 54 ae be 7a a8 1e bf
       -1.0134157 0.18946517 -0.3404903 -0.61975825
0001e0 d9 6f 63 bd 6d 7f 80 bf 57 05 1b 3d 81 1c f3 3c
       -0.055526588 -1.0038887 0.03784689 0.029676678
0001f0 35 66 5a 3e 1b c6 ce bb dc 25 d4 3d f2 d2 0d 3d
       0.21328051 -0.006310237 0.103587836 0.034625
000200 93 4f 92 be 69 8c 4c bc f1 f8 56 3e 38 43 c9 bc
       -0.28576335 -0.012484648 0.20993401 -0.024568185
000210 29 41 00 3e 17 be 91 be 20 a2 95 bb b3 eb e0 be
       0.12524857 -0.2846534 -0.004566446 -0.43929824
000220 11 af a5 3d 3a d8 2d 3d c0 38 9c ba 49 34 73 bc
       0.08090032 0.042442538 -0.0011918768 -0.014844009
000230 37 ba 90 bf 37 d4 da 3e de e5 62 bf d8 2a de bc
       -1.1306828 0.42740032 -0.88632 -0.027120039
000240 7d a0 0b 3e c9 49 da bb ec 6d ca 3c 31 87 84 ba
       0.1363544 -0.006661628 0.024710618 -0.0010111091
000250 c0 8d 69 3c 5f 2e 1a be 91 90 11 3d f7 69 cc 3d
       0.014254987 -0.15056752 0.03553826 0.09981149
000260 d3 17 d7 bd a0 77 b7 3d 7a de bc be c0 4f 53 bd
       -0.10502591 0.089583635 -0.36888486 -0.051589727
000270 5b e6 7a bf d6 54 71 3d ca c0 83 3e 0e 52 3a bf
       -0.98007745 0.058918796 0.25733024 -0.72781456
000280 08 fc 64 3f a4 19 d3 3c 60 c9 f6 bd 08 37 88 3c
       0.8944707 0.025769062 -0.12050128 0.016627803
000290 d5 95 ba be 26 a4 7f 3d c0 b8 82 bd 6a 1c 00 3d
       -0.36442438 0.062412404 -0.063828945 0.031277098
0002a0 c8 c2 83 3f a7 3a 57 be 2e 4a 30 be a0 3d 40 3e
       1.0293818 -0.21018468 -0.17215797 0.18773508
0002b0 43 cf 4c bd 00 3e c3 b9 a8 14 66 3c 6b 81 61 be
       -0.050002348 -0.00037239492 0.014043011 -0.22022025
0002c0 7e 30 45 be 7c 29 f8 3c 2d 20 29 bd 26 04 42 3c
       -0.1925678 0.030293219 -0.04129045 0.011841809
0002d0 7e d1 e8 bc a0 25 63 3b a6 69 a6 bd 55 bc 64 bf
       -0.028420206 0.0034659877 -0.081256196 -0.8934987
0002e0 eb af 95 bd 37 42 e8 be 34 06 c8 bc 87 0a 8e 3d
       -0.07308944 -0.45363018 -0.02441702 0.06935602
0002f0 cd 94 90 bd 8d 74 99 3e 17 b4 b2 3d 97 d3 a6 3d
       -0.070596315 0.29971734 0.08725756 0.08145826
000300 e2 23 26 3d f0 fe 93 3e d0 be cd 3b 54 43 90 3c
       0.040561564 0.2890544 0.00627885 0.01761023
000310 68 4d 1c be 31 97 9c 3c 79 a9 9a 3d 4f b3 3a 3f
       -0.15263903 0.019115062 0.075518556 0.72929853
000320 30 65 83 bb e0 c2 eb bb 95 3b b1 bd a0 52 5c bd
       -0.004009865 -0.007194862 -0.086539425 -0.053789735
000330 50 15 e5 bb 31 27 93 3d 19 11 93 3d 9d 39 66 bd
       -0.006991066 0.071852095 0.071809955 -0.056207288
000340 60 54 86 3c c0 62 c8 bc a0 f9 b2 3b 42 da 25 3d
       0.016397655 -0.02446115 0.0054618865 0.04049135
000350 e7 15 7d bd 0a da 15 bd 0c 4c e9 bc 38 e1 fd bc
       -0.061788466 -0.03658489 -0.028478645 -0.030991182
000360 22 a6 2e 3d c0 bd 5c bd ec 23 85 bd c5 11 cc bd
       0.042638905 -0.053891897 -0.06500992 -0.09964327
000370 10 d7 71 3c 30 d0 3e bd a6 1f 72 3d 4c 50 9d bc
       0.014760748 -0.04658526 0.059112214 -0.019203328
000380 f8 df 98 bd bb 6e 98 bd 3f f5 80 3d d8 1e 62 3c
       -0.07464594 -0.07442995 0.06296777 0.013801299
000390 66 6f 5d 3d 57 27 a6 3d b8 90 89 3c 68 ca 7a bc
       0.054061316 0.08112972 0.01679264 -0.0153070465
0003a0 99 8a a1 3d 80 f0 da ba 9a 95 84 bd b2 5e 6f 3d
       0.078877635 -0.0016703755 -0.06473847 0.058439918
0003b0 22 c3 cc bd d7 93 2f bd 6a 55 65 bd 2d cd ac bd
       -0.09998156 -0.0428656 -0.05598966 -0.08437572
0003c0 ae 1a 9d bd 00 16 9c ba 14 b9 c1 3c a8 ac 7e 3c
       -0.07671104 -0.0011908412 0.023647822 0.015544094
0003d0 ec 3f ba 3c 67 42 ca 3d f7 2c b5 bd 59 60 9a 3d
       0.022735558 0.098759465 -0.08846467 0.07537908
0003e0 1b 9d a7 3d ca 3b b7 bd d7 33 cb bd d7 50 77 bd
       0.08184262 -0.08946951 -0.09921997 -0.06037983
0003f0 1a 32 70 bd 4e 02 36 3d f6 7e 1e 3d f4 06 85 bc
       -0.05864153 0.04443579 0.038695298 -0.016238667

fc2.bias f4 [64]
000000 78 06 b5 bd 0a 3e 96 3d 60 fa d0 bc c3 cf b0 3d
       -0.088391244 0.07336052 -0.025510013 0.086333774
000010 94 44 69 bd 95 1b ab bd 13 6b 2b bd d9 92 a8 3d
       -0.056950167 -0.0835487 -0.04185016 0.08231134
000020 be 95 9a 3d 26 13 7f 3d 00 51 22 bd 95 1b c5 bc
       0.07548092 0.06227412 -0.03962803 -0.024061004
000030 60 eb 6f bd e6 73 08 3d e5 15 39 3d 19 0b ac 3d
       -0.05857408 0.033313654 0.045186896 0.08400554
000040 ba e5 46 bc b0 dc 04 bd f5 b9 a3 3d b6 f6 3f bd
       -0.012139732 -0.032437027 0.07994453 -0.04686614
000050 d1 63 32 bc 51 0b c8 3d cb 02 c5 bc 1f f5 46 3b
       -0.010888056 0.097677834 -0.024049183 0.0030358506
000060 68 d3 59 3d 53 2d a3 3c 55 03 a5 bd 3d 93 59 3d
       0.05318013 0.019919073 -0.08057276 0.053118933
000070 c6 ec a4 bd 54 fc c3 bc 00 b1 a8 bd d0 b5 60 bd
       -0.080529734 -0.02392403 -0.08236885 -0.05486089
000080 0b c9 94 bb 39 3c ea 3b c7 22 a8 3d 46 8e 86 3d
       -0.0045405678 0.0071482924 0.08209758 0.06570105
000090 65 00 c1 bd a0 61 55 bd 80 36 8e bd 70 aa b0 bd
       -0.094239034 -0.052095056 -0.06943989 -0.086262584
0000a0 86 a9 10 3e 76 6d 9b 3c ba f6 78 bd d0 dc 80 3d
       0.14127168 0.018973093 -0.06078217 0.06292117
0000b0 18 01 b4 bd 93 17 96 bd b5 cd c7 bd 76 00 56 3d
       -0.08789271 -0.07328715 -0.097560324 0.052246533
0000c0 37 5d 81 3d 97 f2 a9 3d 47 ed 3b 3d 1d 4e 56 3d
       0.063166074 0.082982235 0.045880582 0.05232059
0000d0 6d d0 91 3d 33 d4 24 bd 82 c1 bf bc 73 83 b0 bd
       0.07119832 -0.04024143 -0.023407701 -0.08618822
0000e0 40 05 83 bd a7 75 d2 bb 6d 01 ac bd 24 b0 fc 3d
       -0.06397486 -0.0064227167 -0.083987094 0.12338284
0000f0 e4 5b 52 3d 75 c1 a6 3d 0f 0a 46 3b ab 9a d6 bc
       0.051357165 0.08142368 0.0030218398 -0.026196798

fc3.weight f4 [1, 64]
000000 00 a1 04 bb 18 b4 54 3f f8 aa d1 3c 08 b9 30 3f
       -0.0020237565 0.830873 0.02559422 0.69032335
000010 71 66 8f bd 54 3e 61 bd 2e 25 9b bd 17 b9 54 3f
       -0.07001961 -0.05499108 -0.07575451 0.83094925
000020 1b 82 f8 be c0 f6 20 bf 00 75 84 bb 4f 02 96 bd
       -0.48536763 -0.6287651 -0.004042268 -0.07324659
000030 fa 4a ce 3b a8 f9 11 bf 6e 29 0b bf 83 9c 60 3f
       0.006295559 -0.5702157 -0.5436009 0.8773882
000040 c5 14 f0 3c 10 ac fe bb 16 76 17 bf d0 f2 c4 3c
       0.029306779 -0.0077719763 -0.5916456 0.024041563
000050 3f 45 8d bd f3 3a 59 3f ba e9 e6 3d 41 df 1d 3d
       -0.06897973 0.84855574 0.112750486 0.03854299
000060 ea 52 09 bf 54 b9 07 bf a2 1f b1 3d b9 f0 1c bf
       -0.5364214 -0.53017163 0.086486116 -0.61304814
000070 80 3b dc bc 58 10 eb 3c d6 20 fa 3d b2 7a 3a bd
       -0.02688384 0.028694317 0.12213294 -0.045527168
000080 1e 6e a5 3c 52 0c 8a 3d 77 11 4d 3f 56 aa 05 bf
       0.02019411 0.06740631 0.80104774 -0.52213037
000090 d2 55 9e bd c0 17 ad 3c 0e 76 93 3d 00 5d 09 ba
       -0.07731213 0.021129489 0.072002515 -0.00052399933
0000a0 3f 91 00 bf 46 49 27 bf d0 93 f5 3c 99 e6 fe be
       -0.5022163 -0.6534618 0.029977709 -0.49785307
0000b0 64 e8 52 bd 3e 19 c4 3d 80 03 ad 3a fa a3 7b 3f
       -0.051491156 0.09575127 0.0013199896 0.98297083
0000c0 2a 7e 14 bf 3c 16 53 3f 70 a2 93 3f 39 48 28 bf
       -0.5800501 0.824558 1.1533947 -0.65735203
0000d0 42 cd 52 3f 38 7b b0 bd 2c 5a ac bd 64 98 97 3d
       0.8234445 -0.08617252 -0.084156364 0.07402113
0000e0 40 65 d9 bb 40 bb 7b 3d c0 ae ff 3d cf 57 01 bf
       -0.0066343844 0.061457872 0.12484503 -0.5052461
0000f0 2e ec 13 bf 3d 14 10 bf 68 4d 82 ba a8 5b ae 3d
       -0.57782257 -0.5628088 -0.0009941282 0.08513576
